src/tennis_ppo_weights_solved_01.pth (torch_old, 48854 bytes, 12 tensors)

actor.log_std f4 [2]
-1.0579281 -0.82086617
00000000: 306a 87bf 4924 52bf

actor.fc1.weight f4 [64, 24]
0.10718963 -0.21538569 -0.09188534 0.02421484 -0.087581135 0.16076057 -0.18055126 -0.117245816
0.16469075 -0.23343275 -0.22192717 0.14469242 -0.26898062 -0.033401538 0.1302137 -0.15796228
0.027426934 -0.25073713 0.0015054541 -0.06625582 -0.2946815 0.3131 0.14471972 -0.027920453
-0.08731451 0.1830036 0.20034833 -0.122582056 -0.111558445 -0.12185757 0.19727682 0.109821126
-0.080388606 0.2161265 -0.06601119 -0.30123785 -0.12639196 -0.040369343 -0.2541527 -0.23998034
0.13624884 0.2269048 0.100355424 -0.1910763 0.16264287 0.01615288 -0.019843757 -0.031371433
0.00449066 0.2234923 -0.1335996 0.22876191 0.06943875 0.0789353 0.09711612 0.053551365
0.14079963 0.22899143 0.012841715 -0.021565707 0.1358444 0.08440292 -0.059660465 0.0985959
0.009234481 0.0048122657 0.07446146 0.037262812 -0.18916509 0.19961426 -0.2190536 -0.13198943
-0.009759243 0.109443165 -0.11785174 -0.12480653 0.05493959 0.09130617 -0.052767757 0.1750956
0.14396185 -0.04133001 -0.012802083 0.018923841 0.04209193 0.11248095 -0.017730746 0.029633405
0.051014993 0.12311355 -0.11752086 0.16453153 -0.16561395 -0.1458 -0.2055683 -0.09208226
0.1654093 0.07300422 -0.19523746 -0.19619858 -0.19274904 0.08589273 -0.081990235 -0.010840305
-0.09296255 0.06374495 0.054662738 0.1402446 -0.06284868 0.079091094 -0.19389918 -0.13661179
0.1320818 0.0011829729 -0.024107944 0.0490342 -0.283753 0.22658297 0.0352992 -0.09017771
0.054912735 0.07914342 0.014656639 -0.054524105 -0.21915233 -0.031168267 0.10306898 -0.085108094
-0.18206139 0.18792836 -0.03622526 -0.038503777 -0.005198434 -0.2138757 0.12101709 -0.057886135
-0.03336232 0.2399481 0.05315507 -0.03226267 0.10604447 0.015926493 0.20020469 0.093601726
0.10700739 -0.21055675 -0.14790286 -0.09264176 -0.21920049 -0.18888235 -0.028236218 0.093114845
-0.2587348 -0.12552923 0.08130089 -0.010633734 -0.08202491 -0.24798383 0.11756321 0.232201
-0.07410169 -0.102214165 0.07962148 0.07116399 0.08802317 -0.3226687 -0.075662166 0.2020175
-0.13376264 0.066576466 0.20383258 0.13432519 -0.13541111 0.15144932 -0.05509906 0.16242835
0.16366857 0.019335734 -0.09089125 -0.10563178 -0.06463152 0.0135101415 -0.104944326 -0.0063361493
0.02580729 -0.07637271 0.03181017 0.06944635 0.025288288 0.111138836 0.18402615 -0.10798609
-0.053673685 -0.19628938 0.048229035 -0.0043225153 -0.06418373 0.24291895 0.19820578 -0.07523323
-0.14043064 0.10340584 0.22208689 -0.058698766 0.25286153 0.060127605 -0.018145451 0.08108935
-0.027849881 0.1765248 0.03398234 -0.19915687 0.20180142 0.1540757 -0.121127196 0.035752956
0.24284048 -0.012890613 -0.10204286 0.22043198 -0.14484219 -0.2008146 -0.0581634 0.04147151
-0.016202573 -0.10110578 -0.14257944 -0.029832765 0.17820475 -0.052701287 0.0817554 0.052133977
-0.045372456 0.08594803 0.15475124 0.15548311 -0.20217456 0.08644261 -0.11912417 -0.14771405
-0.065815024 -0.15111263 0.043975797 -0.00879855 -0.045830294 -0.053033955 -0.08645498 -0.22856838
-0.08371531 0.0148104895 -0.08449138 0.10870272 -0.0358564 -0.14576042 -0.09706419 0.05582592
00000000: 3d86 db3d 118e 5cbe 622e bcbd 335e c63c
00000010: bd5d b3bd 6b9e 243e 6ee2 38be 931e f0bd
00000020: b1a4 283e ff08 6fbe e040 63be 402a 143e
00000030: d4b7 89be 0dd0 08bd bd56 053e ddc0 21be
00000040: 73ae e03c 9e60 80be a852 c53a 22b1 87bd
00000050: 7ee0 96be a54e a03e 6831 143e 6fb9 e4bc
00000060: f3d1 b2bd 4c65 3b3e 1d28 4d3e 4d0c fbbd
00000070: c178 e4bd 7690 f9bd ef02 4a3e e6e9 e03d
00000080: c8a2 a4bd 4450 5d3e e030 87bd d93b 9abe
00000090: e56c 01be 535a 25bd 4d20 82be 68bd 75be
000000a0: d184 0b3e bb59 683e 2587 cd3d 81a9 43be
000000b0: da8b 263e 0b53 843c 608f a2bc 557f 00bd
000000c0: 6326 933b 2adb 643e 55ce 08be 9040 6a3e
000000d0: e735 8e3d d5a8 a13d d1e4 c63d ad58 5b3d
000000e0: c72d 103e bb7c 6a3e 0e66 523c 91aa b0bc
000000f0: cb1a 0b3e 70db ac3d 885e 74bd a6ec c93d
00000100: 384c 173c 36b0 9d3b 407f 983d e4a0 183d
00000110: 7eb4 41be ae67 4c3e 964f 60be 3d28 07be
00000120: 3be5 1fbc bd23 e03d 415c f1bd 919a ffbd
00000130: 5608 613d bbfe ba3d 0123 58bd 434c 333e
00000140: bc6a 133e a849 29bd d4bf 51bc 2c06 9b3c
00000150: 9668 2c3d 6a5c e63d 1240 91bc c1c1 f23c
00000160: 19f5 503d f522 fc3d c7ae f0bd f47a 283e
00000170: b496 29be 984c 15be 7f80 52be a095 bcbd
00000180: 0e61 293e 3d83 953d 54ec 47be 48e8 48be
00000190: 0160 45be 87e8 af3d 7fea a7bd 899b 31bc
000001a0: 2663 bebd b68c 823d 09e6 5f3d 489c 0f3e
000001b0: cfb6 80bd 83fa a13d 828d 46be f6e3 0bbe
000001c0: 7440 073e fc0d 9b3a 067e c5bc 16d8 483d
000001d0: 1348 91be 5e05 683e e595 103d 17af b8bd
000001e0: 2dec 603d f215 a23d 6622 703c ab54 5fbd
000001f0: 7869 60be 9854 ffbc d415 d33d 274d aebd
00000200: 4d6e 3abe 4b70 403e f060 14bd 23b6 1dbd
00000210: a057 aabb 3b02 5bbe cfd7 f73d 031a 6dbd
00000220: eea6 08bd f4b4 753e 21b9 593d dd25 04bd
00000230: d82d d93d 4778 823c 7502 4d3e 43b2 bf3d
00000240: b126 db3d 309c 57be d973 17be f7ba bdbd
00000250: 1876 60be 606a 41be a44f e7bc ffb2 be3d
00000260: e378 84be bc8a 00be 1581 a63d 1d39 2ebc
00000270: adfc a7bd 79ef 7dbe fbc4 f03d 19c6 6d3e
00000280: a0c2 97bd a955 d1bd 9610 a33d 6dbe 913d
00000290: 7e45 b43d d534 a5be c4f4 9abd addd 4e3e
000002a0: 13f9 08be 3e59 883d 7db9 503e 8b8c 093e
000002b0: 36a9 0abe 8815 1b3e 8daf 61bd 9e53 263e
000002c0: bc98 273e f965 9e3c 3125 babd 7a55 d8bd
000002d0: 885d 84bd a459 5d3c 0ded d6bd 799f cfbb
000002e0: cf69 d33c 4c69 9cbd 614b 023d e339 8e3d
000002f0: 6229 cf3c c29c e33d 5a71 3c3e d027 ddbd
00000300: f0d8 5bbd 1500 49be cf8b 453d e3a3 8dbb
00000310: c272 83bd bfbf 783e 75f6 4a3e e113 9abd
00000320: 0dcd 0fbe 71c6 d33d bf6a 633e 1e6e 70bd
00000330: 1177 813e 5d48 763d c5a5 94bc 2c12 a63d
00000340: 6f25 e4bc ebc2 343e 1131 0b3d c7ef 4bbe
00000350: 08a5 4e3e 05c6 1d3e 8911 f8bd b171 123d
00000360: 2dab 783e 2633 53bc d9fb d0bd ecb8 613e
00000370: 8351 14be 58a2 4dbe bf3c 6ebd 08de 293d
00000380: 42bb 84bc 8c10 cfbd 5800 12be d863 f4bc
00000390: 4e7b 363e 4edd 57bd 606f a73d 708a 553d
000003a0: 78d8 39bd 8505 b03d 1c77 1e3e f736 1f3e
000003b0: d906 4fbe d308 b13d 5ff7 f3bd 5a42 17be
000003c0: 07ca 86bd 45bd 1abe f71f 343d cb27 10bc
000003d0: 8cb8 3bbd 223a 59bd 4f0f b1bd d40d 6abe
000003e0: ef72 abbd b2a7 723c d109 adbd 889f de3d
000003f0: 29de 12bd 3842 15be 97c9 c6bd b8a9 643d

actor.fc1.bias f4 [64]
-0.030865658 -0.010449514 -0.008524515 0.018241175 0.19467013 -0.08880451 -0.13335918 0.08832641
0.10891015 -0.1334175 -0.1418523 0.19636816 0.17055267 -0.16003475 0.076253004 0.017569419
-0.22413923 -0.02870132 -0.12025191 -0.22102909 -0.13563205 0.17074509 -0.07966062 -0.041447867
-0.022124462 -0.12444554 0.088206254 0.013331876 0.14351882 0.18072204 -0.16194141 -0.15819877
0.09597565 -0.12861891 -0.07103348 -0.05875139 0.14538358 0.06297883 -0.09056579 -0.059550498
-0.055235498 0.19713978 0.150658 0.1359626 -0.20112091 -0.032371603 0.016161054 0.13401438
0.26387525 0.16032574 -0.18943982 -0.16677663 0.110026196 -0.19792588 -0.13797507 0.13860609
0.10014239 -0.18703008 0.14919004 -0.17427002 0.04412698 0.06285781 0.14765723 0.024847073
00000000: fad9 fcbc 7034 2bbc 68aa 0bbc 846e 953c
00000010: 9b57 473e 24df b5bd 4f8f 08be 7ae4 b43d
00000020: 490c df3d 999e 08be bb41 11be bc14 493e
00000030: 5ca5 2e3e 26e0 23be 892a 9c3d beed 8f3c
00000040: c184 65be 081f ebbc a246 f6bd 7355 62be
00000050: 21e3 0abe cdd7 2e3e 1b25 a3bd 3dc5 29bd
00000060: 5c3e b5bc 4edd febd 7ba5 b43d f16d 5a3c
00000070: 99f6 123e 330f 393e f8d3 25be dcfe 21be
00000080: e28e c43d adb4 03be 007a 91bd 4ca5 70bd
00000090: 6fdf 143e 0bfb 803d 8f7a b9bd 39eb 73bd
000000a0: 9e3e 62bd 03df 493e 1746 1a3e c839 0b3e
000000b0: a4f2 4dbe 1698 04bd 3064 843c 113b 093e
000000c0: a81a 873e 6e2c 243e 83fc 41be 7ec7 2abe
000000d0: 6a55 e13d 15ad 4abe 5649 0dbe c1ee 0d3e
000000e0: 7417 cd3d d084 3fbe 46c5 183e d773 32be
000000f0: 7ebe 343d 98bb 803d 7533 173e 178c cb3c

actor.fc2.weight f4 [64, 64]
-0.07854514 0.10159952 0.0675094 -0.013076654 -0.05300048 -0.06685544 0.19593379 -0.014536868
-0.055428557 -0.0946662 0.00518455 -0.0726507 -0.021228308 0.061399523 -0.05264994 0.06571284
0.10094508 0.082469024 -0.029079204 0.10395931 0.05661121 -0.0045172386 0.15499762 0.04254823
0.109225236 0.12818429 -0.067178585 -0.044113066 0.04691421 0.13669796 0.0727544 0.010782872
-0.05193684 0.07433899 -0.012900618 0.08971344 0.09711309 -0.10119368 -0.046070497 0.01741815
0.105502695 -0.006247807 0.03683312 0.16568388 -0.017185288 -0.13000852 -0.055314284 0.04965542
-0.1105934 0.14432448 0.002017132 0.11180015 -0.020654144 0.04063244 -0.00017867016 0.13287176
0.17865345 -0.081430964 -0.009337586 0.08090974 0.1069427 -0.07673928 0.0457575 0.044487774
-0.05165657 0.048415277 0.11509998 -0.09848357 -0.009253761 0.018477825 -0.16818494 -0.03625808
0.13568805 0.099074595 -0.1315032 -0.01405678 -0.020665253 0.100567065 0.013627503 0.03256029
-0.06300657 -0.044611756 0.09287023 0.053967632 0.12992862 0.09857553 0.047939368 -0.059958234
0.09297839 -0.075546876 -0.023199517 -0.10911902 0.15473397 -0.055961184 -0.05298499 0.1302804
0.03589485 -0.09335138 0.15199772 0.09138791 -0.10637478 -0.00068320404 0.06330946 -0.03282296
-0.022827625 -0.14969209 0.08669893 -0.03154693 -0.111692175 0.098330036 0.09876808 -0.19122845
0.15849604 -0.07865919 -0.08330944 -0.051475145 0.078061104 0.09344123 -0.1205992 -0.09828665
-0.06899057 0.18005635 0.09936485 -0.023854226 0.17479628 -0.008117025 -0.04895988 -0.065111786
0.11567099 0.06286663 -0.06932557 0.10931806 -0.13372797 0.0801955 0.10995982 -0.09338479
0.10690385 -0.012933325 0.061315924 0.10552681 0.0131048765 0.04679712 -0.054487556 -0.04971937
0.0032635345 0.12483358 0.09862061 0.13182369 -0.041805375 -0.07547746 0.10059195 -0.06290904
-0.0454012 0.10716097 0.054658968 0.0014278642 -0.059152324 -0.051197924 0.14236717 -0.01085342
-0.009296747 -0.015993878 -0.028286444 -0.086425595 -0.15357055 -0.017902277 0.102581106 -0.034402326
0.1599206 -0.04289775 -0.08940859 0.13151595 0.070940845 0.03553779 0.081440054 -0.01949579
0.056583602 -0.000984165 0.11281096 0.13604032 0.008991233 0.17102134 0.10391722 0.035078518
-0.12797494 0.061120782 -0.028458286 -0.009108321 -0.031551987 0.07923341 -0.0633738 -0.12808321
-0.094311126 0.055247657 0.015582354 0.0029316244 -0.044223025 -0.12060958 0.057649188 -0.17516814
0.04882275 -0.16968174 -0.052116256 0.043168884 0.107417546 -0.15926795 -0.16536044 -0.04522419
0.06222065 0.07212437 -0.05898706 -0.07869717 0.075197 0.044588163 0.04886245 -0.036081128
-0.027645402 0.07712534 -0.07349995 -0.09738455 0.07172644 -0.12504727 -0.086265735 -0.0009802604
0.036360838 0.07925612 -0.13760945 -0.13347143 -0.035479672 0.02536462 -0.15761186 0.07405757
0.035735708 -0.12579511 -0.09443444 0.075833514 -0.06411477 0.0619095 -0.07360378 0.005541558
-0.08598357 -0.08209941 0.083121866 -0.044699095 -0.11423753 0.002120796 -0.13941771 -0.05139245
0.069829926 -0.07273488 -0.0679317 -0.018663403 -0.14114259 -0.099742375 0.08142862 -0.0033934794
00000000: 46dc a0bd 6913 d03d 5e42 8a3d 763f 56bc
00000010: 0817 59bd 81eb 88bd dea2 483e 0b2c 6ebc
00000020: 0e09 63bd 5ae0 c1bd 28e3 a93b e4c9 94bd
00000030: fde6 adbc 117e 7b3d 77a7 57bd 7494 863d
00000040: 4bbc ce3d 85e5 a83d 8337 eebc 9ee8 d43d
00000050: 28e1 673d 5805 94bb b2b7 1e3e 0e47 2e3d
00000060: 7bb1 df3d be42 033e ed94 89bd e7af 34bd
00000070: 1d29 403d 8dfa 0b3e 4200 953d a5aa 303c
00000080: b9bb 54bd 0a3f 983d 1d5d 53bc aebb b73d
00000090: 3ae3 c63d a23e cfbd 6bb4 3cbd 82b0 8e3c
000000a0: cc11 d83d 67ba ccbb 53de 163d 09a9 293e
000000b0: 29c8 8cbc f420 05be 3b91 62bd 7b63 4b3d
000000c0: cb7e e2bd ccc9 133e dc31 043b 7af7 e43d
000000d0: e132 a9bc 346e 263d 6859 3bb9 890f 083e
000000e0: eef0 363e 47c5 a6bd adfc 18bc 01b4 a53d
000000f0: c604 db3d 7c29 9dbd 376c 3b3d d038 363d
00000100: d795 53bd 194f 463d 8ab9 eb3d c1b1 c9bd
00000110: 169d 17bc cf5e 973c ac38 2cbe 5a83 14bd
00000120: cff1 0a3e 9fe7 ca3d c6a8 06be 694e 66bc
00000130: 2d4a a9bc 1bf6 cd3d e445 5f3c f05d 053d
00000140: 9709 81bd d1ba 36bd bf32 be3d 2a0d 5d3d
00000150: 020c 053e f8e1 c93d 125c 443d c496 75bd
00000160: 746b be3d 52b8 9abd ea0c bebc cb79 dfbd
00000170: 9572 1e3e 8e37 65bd ca06 59bd 3a68 053e
00000180: 7a06 133d 022f bfbd 4aa5 1b3e 9629 bb3d
00000190: 05db d9bd 0c19 33ba 64a8 813d 5e71 06bd
000001a0: 0001 bbbc e248 19be 358f b13d 5b37 01bd
000001b0: debe e4bd 4261 c93d eb46 ca3d 64d1 43be
000001c0: c94c 223e 1218 a1bd 249e aabd 9ad7 52bd
000001d0: 80de 9f3d 1e5e bf3d b7fc f6bd 834a c9bd
000001e0: ee4a 8dbd b160 383e cc7f cb3d f069 c3bc
000001f0: ccfd 323e 45fd 04bc 288a 48bd 5459 85bd
00000200: e9e4 ec3d 38c0 803d 90fa 8dbd 26e2 df3d
00000210: fcef 08be 8a3d a43d 9d32 e13d 8640 bfbd
00000220: 68f0 da3d 4ce6 53bc 6826 7b3d 711e d83d
00000230: d6b5 563c 56ae 3f3d 582e 5fbd 8aa6 4bbd
00000240: 06e1 553b bfa8 ff3d 9af9 c93d cafc 063e
00000250: 1d3c 2bbd ed93 9abd 2703 ce3d 74d6 80bd
00000260: 9cf6 39bd 3677 db3d 15e2 5f3d 2c27 bb3a
00000270: b549 72bd eab4 51bd b3c8 113e 8bd2 31bc
00000280: 6251 18bc 9805 83bc f9b8 e7bc e7ff b0bd
00000290: 9941 1dbe cca7 92bc 0b16 d23d 74e9 0cbd
000002a0: 3ac2 233e 8db5 2fbd da1b b7bd 1eac 063e
000002b0: 6f49 913d 1390 113d 0bca a63d a3b5 9fbc
000002c0: 35c4 673d 19ff 80ba 6f09 e73d 274e 0b3e
000002d0: f74f 133c 3820 2f3e 8dd2 d43d 7eae 0f3d
000002e0: dd0b 03be c959 7a3d 5a21 e9bc 113b 15bc
000002f0: a83c 01bd 2045 a23d 1fca 81bd 3f28 03be
00000300: 3126 c1bd 5e4b 623d 214d 7f3c 7f20 403b
00000310: 3423 35bd 2802 f7bd 8e21 6c3d 475f 33be
00000320: 5dfa 473d 0dc1 2dbe db77 55bd dbd1 303d
00000330: bbfd db3d 2317 23be 3f54 29be 003d 39bd
00000340: 15db 7e3d f1b5 933d 6a9c 71bd fb2b a1bd
00000350: e200 9a3d 14a2 363d fe23 483d cec9 13bd
00000360: 9c78 e2bc e4f3 9d3d 2487 96bd 8d71 c7bd
00000370: 50e5 923d 640c 00be 17ac b0bd 157c 80ba
00000380: 1aef 143d 0851 a23d 7ee9 0cbe bcac 08be
00000390: 2253 11bd 77c9 cf3c 0165 21be 7fab 973d
000003a0: 9b5f 123d 6fd0 00be d866 c1bd 9a4e 9b3d
000003b0: 9b4e 83bd d194 7d3d 94bd 96bd f595 b53b
000003c0: 2718 b0bd bc23 a8bd cc3b aa3d 6616 37bd
000003d0: 5ef5 e9bd 0dfd 0a3b 84c3 0ebe e480 52bd
000003e0: fe02 8f3d 06f6 94bd c61f 8bbd fee3 98bc
000003f0: af87 10be bb45 ccbd 0cc4 a63d 2365 5ebb

actor.fc2.bias f4 [64]
0.03908974 -0.021444589 -0.06053978 -0.10329181 0.021103218 0.0022040342 0.05564045 -0.053452585
-0.092672266 -0.13614151 -0.02762273 -0.124631464 -0.016712172 -0.0575145 -0.12934197 -0.0059990403
0.049301513 0.009339235 0.020139327 0.070443355 -0.0124985855 -0.11662107 -0.0531885 -0.12382571
0.0094019575 -0.020630589 0.058789246 0.043066747 0.0040239957 -0.10894808 -0.13678323 0.15871008
0.10402195 0.04026401 0.104320884 0.1111177 -0.052783087 -0.032591537 -0.10516657 0.06517716
-0.14341474 0.08029402 -0.10185374 -0.0900042 -0.14892593 0.0779041 -0.07471993 -0.090496704
0.03217486 0.011796126 -0.0033290542 -0.040916044 0.030825565 0.045600045 0.0001828375 -0.07541889
-0.063846976 0.13731262 -0.050525993 -0.14920403 0.06279084 0.021166062 -0.02508891 0.064923875
00000000: 901c 203d 90ac afbc 8ff8 77bd a88a d3bd
00000010: a8e0 ac3c 8f71 103b 3ee7 633d 19f1 5abd
00000020: f5ca bdbd ae68 0bbe 1049 e2bc c83e ffbd
00000030: f7e7 88bc 5394 6bbd 3972 04be 9993 c4bb
00000040: 62f0 493d 9703 193c 3bfb a43c 9b44 903d
00000050: dec6 4cbc 07d7 eebd 2fdc 59bd 5598 fdbd
00000060: ab0a 1a3c 7b01 a9bc fecc 703d c266 303d
00000070: b9db 833b 2c20 dfbd e710 0cbe e584 223e
00000080: 7609 d53d e0eb 243d 30a6 d53d ad91 e33d
00000090: 1433 58bd b47e 05bd 9261 d7bd 9a7b 853d
000000a0: 50db 12be 3171 a43d b298 d0bd 1f54 b8bd
000000b0: 0a80 18be 2f8c 9f3d c306 99bd 5656 b9bd
000000c0: c9c9 033d 8a44 413c 432c 5abb 9597 27bd
000000d0: e585 fc3c 1dc7 3a3d 11b8 3f39 3875 9abd
000000e0: 34c2 82bd ae9b 0c3e 58f4 4ebd f1c8 18be
000000f0: 7c98 803d 7364 ad3c 4287 cdbc cff6 843d

actor.fc3.weight f4 [2, 64]
0.1319531 0.008545801 0.08369443 -0.08785636 -0.010531713 -0.11591012 0.1305165 -0.14311093
0.07245307 -0.053418312 -0.0349053 -0.071932755 0.041448213 -0.039914872 0.009865818 0.06387351
-0.06458681 0.1231693 -0.18097098 0.15050288 -0.05733152 -0.08765951 0.09391487 0.11503899
-0.088967726 -0.06884479 0.08586734 0.08002214 0.08407036 -0.06786744 -0.030526346 -0.08503875
-0.025486097 0.039702576 0.011916809 0.03704399 -0.10953539 0.035058983 0.054901876 -0.0072351154
-0.018351743 0.13696705 0.058121815 -0.12414968 -0.03742666 0.006192544 -0.100346886 -0.09538684
-0.13108288 -0.09155894 0.1698712 0.0071261297 -0.09409623 0.094108485 0.19528459 -0.14172444
-0.12546259 -0.13259935 -0.17389065 -0.02790721 0.038187403 -0.047006235 0.10156681 -0.106906116
-0.16906439 0.12851028 0.062460624 -0.07070701 -0.10173549 0.10017729 0.07694754 0.09517267
-0.061080698 0.005491155 0.023997772 -0.0067164334 -0.0012669971 -0.039511625 -0.011840405 -0.029349549
-0.13394386 -0.058947194 0.111732006 0.047580454 0.045636475 -0.09570491 -0.24263978 0.016800195
0.1262832 -0.03267722 -0.021069419 -0.10771135 0.038628574 -0.058994535 0.046325423 0.19302692
-0.0988218 -0.16586488 -0.038195048 -0.090954416 -0.0035549668 0.07549289 0.0017782933 0.015277364
-0.021342952 -0.06228558 0.10134131 0.0729979 -0.092223175 -0.055740952 0.09668507 -0.065126516
-0.048031356 -0.029182311 -0.15116225 0.04830715 -0.09348671 0.042580727 5.5125107e-05 0.11265551
-0.07643289 0.059319437 0.045034334 -0.09964953 -0.12919366 -0.13488251 0.027505124 0.063874766
00000000: b71e 073e b003 0c3c fc67 ab3d 09ee b3bd
00000010: 358d 2cbc 4962 edbd 1ea6 053e ac8b 12be
00000020: 4662 943d 29cd 5abd dcf8 0ebd 7b51 93bd
00000030: 9ac5 293d c77d 23bd 3da4 213c 1dd0 823d
00000040: 1746 84bd 3040 fc3d 7550 39be 6d1d 1a3e
00000050: 75d4 6abd d486 b3bd 7056 c03d 9099 eb3d
00000060: b634 b6bd 7ffe 8cbd 37db af3d a6e2 a33d
00000070: 152d ac3d 16fe 8abd 6312 fabc cc28 aebd
00000080: 38c8 d0bc 2b9f 223d b83e 433c 70bb 173d
00000090: 1754 e0bd 029a 0f3d cae0 603d 8c14 edbb
000000a0: 6556 96bc 1741 0c3e 2411 6e3d 3042 febd
000000b0: b34c 19bd d3ea ca3b ab82 cdbd 2d5a c3bd
000000c0: 973a 06be 4183 bbbd b7f2 2d3e 4f82 e93b
000000d0: 86b5 c0bd f3bb c03d aff8 473e 3620 11be
000000e0: 4479 00be 20c8 07be 6410 32be a99d e4bc
000000f0: 656a 1c3d 9c89 40bd 4202 d03d 98f1 dabd
00000100: 371f 2dbe 3398 033e b6d6 7f3d d6ce 90bd
00000110: b25a d0bd c029 cd3d ac96 9d3d e4e9 c23d
00000120: c12f 7abd 26ef b33b fa96 c43c 8715 dcbb
00000130: 5e11 a6ba f1d6 21bd 42fe 41bc 776e f0bc
00000140: 9428 09be 9d72 71bd c0d3 e43d b9e3 423d
00000150: 50ed 3a3d f000 c4bd 9076 78be 90a0 893c
00000160: 6250 013e 8cd8 05bd c699 acbc c597 dcbd
00000170: ff38 1e3d 41a4 71bd babf 3d3d d9a8 453e
00000180: 1563 cabd 7cd8 29be 6972 1cbd 4f46 babd
00000190: 72fa 68bb 049c 9a3d 9f15 e93a e94d 7a3c
000001a0: 6ad7 aebc 2a1f 7fbd 088c cf3d ec7f 953d
000001b0: 81df bcbd a050 64bd d202 c63d 0d61 85bd
000001c0: 87bc 44bd be0f efbc 47ca 1abe b8dd 453d
000001d0: f675 bfbd 2169 2e3d 2236 6738 efb7 e63d
000001e0: d988 9cbd f0f8 723d ec75 383d 0e15 ccbd
000001f0: 584b 04be a41e 0abe 6d52 e13c c6d0 823d

actor.fc3.bias f4 [2]
0.084505685 -0.0979127
00000000: 5111 ad3d 7486 c8bd

critic.fc1.weight f4 [64, 24]
-0.04492707 0.040869072 0.024834376 0.11479753 0.12307897 -0.08967567 -0.021969207 -0.072126016
-0.046879325 0.17942272 0.06627712 0.14619426 0.07541414 -0.19504757 -0.0883418 -0.2050275
0.21897897 0.19880177 -0.020741258 -0.098376185 -0.13467595 0.06171849 0.033472676 0.09861706
0.15382303 0.036434412 -0.021296969 0.044695143 0.20420721 -0.3346401 0.003301446 -0.12768355
0.07164051 0.251469 0.11330345 0.13158844 -0.095004484 -0.15922317 -0.09356442 -0.17396866
-0.06659332 -0.084198736 0.037111193 -0.07828358 -0.07609324 -0.0038507117 -0.0076654754 0.051613346
0.107246555 0.39476454 -0.09101538 -0.2980294 -0.21534316 -0.07610081 0.08623059 -0.058689322
0.17201415 0.3508158 0.11218521 -0.1780327 -0.15590782 0.13669492 -0.09443712 -0.15688172
0.22830781 0.12566313 -0.06998305 -0.13772403 0.3192988 0.0029008298 0.08760911 0.003710457
-0.040996116 -0.12568904 -0.11255203 -0.020751657 -0.069830604 -0.010467626 0.11079882 0.030006604
-0.0799466 0.11298051 -0.087843254 0.028636629 -0.06902045 -0.10585909 0.07531224 0.10529574
0.25192964 0.16889621 0.092516124 -0.022929704 0.120718054 0.039636865 -0.11658898 -0.053957313
0.15041326 0.049992476 0.112240724 -0.007147134 0.10351745 -0.10332526 -0.14670542 -0.008479993
0.07457937 -0.047540713 -0.15172482 0.047879405 0.15009744 -0.018220464 0.12902254 0.018983094
0.15249406 -0.0118046105 0.03531644 -0.07293056 -0.26914704 0.15784125 -0.032249086 -0.10587001
-0.10888264 -0.14796828 0.051217027 0.0036452804 0.015856517 -0.095234856 -0.03742203 0.105091184
0.21563949 -0.041956376 -0.11829308 0.17385146 0.09616474 0.12432641 0.11210197 -0.07769501
0.2550145 0.07937522 0.06214396 -0.03428749 0.3944497 0.025798803 -0.055736203 0.25152305
-0.06126591 -0.1337625 -0.0681649 0.045221087 -0.0128658535 -0.2065892 0.09024925 -0.23337516
0.17091271 -0.040807944 -0.11032378 -0.11447917 -0.09997353 -0.13553956 0.063478276 -0.18648668
0.143904 0.15355635 -0.06562092 -0.10964736 -0.011182886 -0.07449015 -0.0071468498 0.03277831
-0.14615591 -0.067658134 -0.07668166 0.06217969 0.06765437 0.07939052 0.08878785 0.047643743
0.024962852 0.2416305 0.04227155 0.12436678 -0.06201577 0.010376098 -0.050982032 0.005773355
-0.19266404 0.05267212 0.11869023 0.038794905 -0.22696441 -0.72208184 -0.11768737 0.11985049
-0.13744657 0.029804979 -0.13016799 0.22848657 -0.10587684 -0.065166175 0.11996978 0.2379697
0.18478991 0.08414399 0.09682002 -0.22222874 -0.12364704 -0.16652466 -0.10822002 -0.23634264
0.15342338 0.23041175 -0.04710909 -0.17288494 0.27651352 -0.17084244 0.037957855 -0.011724847
0.10835024 -0.059367534 -0.16822723 0.011624193 -0.15648419 -0.14032868 0.16768372 0.025746003
0.17892835 0.2704725 0.061421745 0.21093586 -0.28840488 -0.12964256 -0.0671938 -0.15552896
0.32485142 0.27384636 -0.024651445 0.14166115 -0.40314478 -0.067537434 -0.014445549 -0.015415927
0.07146914 0.15668195 0.1252931 -0.0703524 -0.115396716 -0.18554623 -0.14685725 -0.06931559
0.10883568 0.13214388 -0.098347194 0.08630206 0.08140127 -0.13960204 0.048689105 -0.14716786
00000000: 7305 38bd 5466 273d 7671 cb3c f81a eb3d
00000010: d410 fc3d e1a7 b7bd c4f8 b3bc ceb6 93bd
00000020: 8904 40bd 97ba 373e 4cbc 873d f3b3 153e
00000030: bb72 9a3d 8dba 47be 8cec b4bd bbf2 51be
00000040: 063c 603e b192 4b3e 92e9 a9bc 7479 c9bd
00000050: 7ee8 09be 87cc 7c3d a51a 093d bef7 c93d
00000060: c983 1d3e 403c 153d fb76 aebc 4112 373d
00000070: b21b 513e f255 abbe 135d 583b 7abf 02be
00000080: 42b8 923d 8bc0 803e a40b e83d 1fbf 063e
00000090: b691 c2bd 660b 23be b49e bfbd d724 32be
000000a0: 1462 88bd 6370 acbd e801 183d 2453 a0bd
000000b0: c6d6 9bbd 395c 7cbb ab2e fbbb 8468 533d
000000c0: 15a4 db3d 941e ca3e 4666 babd 4f97 98be
000000d0: eb82 5cbe beda 9bbd aa99 b03d 3764 70bd
000000e0: 7a24 303e 219e b33e 5cc1 e53d 344e 36be
000000f0: 4da6 1fbe c1f9 0b3e 4068 c1bd 9aa5 20be
00000100: 86c9 693e d6ad 003e 4653 8fbd 8707 0dbe
00000110: 227b a33e d91b 3e3b 686c b33d 232b 733b
00000120: 8beb 27bd a1b4 00be ae81 e6bd 61ff a9bc
00000130: 5903 8fbd 6880 2bbc 7eea e23d 69d0 f53c
00000140: 0bbb a3bd 5362 e73d 2ae7 b3bd 5d97 ea3c
00000150: 985a 8dbd a7cc d8bd 4e3d 9a3d 4ba5 d73d
00000160: ecfc 803e 21f3 2c3e 1879 bd3d 13d7 bbbc
00000170: 073b f73d 445a 223d 34c6 eebd 5802 5dbd
00000180: ef05 1a3e e9c4 4c3d 77de e53d 8132 eabb
00000190: f500 d43d 329c d3bd f239 16be abef 0abc
000001a0: 12bd 983d 0dba 42bd c05d 1bbe 321d 443d
000001b0: 25b3 193e 1543 95bc 7c1e 043e 6f82 9b3c
000001c0: 6727 1c3e 2068 41bc f9a7 103d 9e5c 95bd
000001d0: a4cd 89be 23a1 213e 9e17 04bd 60d2 d8bd
000001e0: ddfd debd ff84 17be f2c8 513d a8e5 6e3b
000001f0: 87e5 813c 7e0a c3bd d847 19bd 0c3a d73d
00000200: 99d0 5c3e 73da 2bbd a443 f2bd 1e06 323e
00000210: 05f2 c43d d89e fe3d b895 e53d 901e 9fbd
00000220: 4391 823e 7a8f a23d aa8a 7e3d 0a71 0cbd
00000230: 50f5 c93e 0358 d33c a54b 64bd a1c7 803e
00000240: f6f1 7abd 09f9 08be 0a9a 8bbd bf39 393d
00000250: 4dcb 52bc 1f8c 53be 99d4 b83d e6f9 6ebe
00000260: be03 2f3e 3b26 27bd 6ff1 e1bd 0e74 eabd
00000270: ecbe ccbd e2ca 0abe e600 823d 5df6 3ebe
00000280: 925b 133e e03d 1d3e 4364 86bd cc8e e0bd
00000290: 6c38 37bc 4b8e 98bd 1f30 eabb 8d42 063d
000002a0: e5a9 15be 5990 8abd 460b 9dbd 21b0 7e3d
000002b0: 608e 8a3d 7f97 a23d 68d6 b53d 1626 433d
000002c0: e57e cc3c fc6d 773e ef24 2d3d 03b4 fe3d
000002d0: 3f04 7ebd 8200 2a3c 89d2 50bd 692e bd3b
000002e0: b949 45be b9be 573d dd13 f33d 68e7 1e3d
000002f0: 5c69 68be 5bda 38bf 1306 f1bd 2c74 f53d
00000300: cbbe 0cbe 9229 f43c c24a 05be 62f8 693e
00000310: f5d5 d8bd d875 85bd b7b2 f53d 54ae 733e
00000320: 9139 3d3e af53 ac3d 9349 c63d ee8f 63be
00000330: a93a fdbd 7185 2abe 75a2 ddbd ce03 72be
00000340: 051b 1d3e 0ff1 6b3e 76f5 40bd c008 31be
00000350: 2e93 8d3e 52f1 2ebe b279 1b3d 9319 40bc
00000360: bbe6 dd3d 5f2b 73bd c243 2cbe 6673 3e3c
00000370: 643d 20be 52b2 0fbe 48b5 2b3e 48e9 d23c
00000380: fe38 373e 5f7b 8a3e 5e95 7b3d 92ff 573e
00000390: cea9 93be 05c1 04be e79c 89bd fc42 1fbe
000003a0: ed52 a63e 9735 8c3e d4f1 c9bc 9f0f 113e
000003b0: fe68 cebe 1151 8abd 06ad 6cbc 1693 7cbc
000003c0: 6a5e 923d 3c71 203e d64c 003e eb14 90bd
000003d0: 1d55 ecbd d5ff 3dbe bf61 16be 55f5 8dbd
000003e0: 3ee5 de3d ba50 073e 416a c9bd 22bf b03d
000003f0: b6b5 a63d d6f3 0ebe 3a6e 473d 2cb3 16be

critic.fc1.bias f4 [64]
-0.15236361 -0.051519077 -0.0681362 -0.20894536 -0.1520845 0.05647307 -0.19654591 0.10215383
-0.20652656 0.057241827 -0.19388959 -0.173459 0.08527432 0.04860225 -0.031904187 -0.27166453
-0.13600257 -0.17238484 -0.19324881 0.08112682 -0.057347298 -0.17853644 0.023265582 -0.24076456
-0.12713714 0.054746557 -0.36946613 0.24076052 -0.21182324 -0.14067076 -0.21840213 -0.24260253
-0.34309533 -0.12126683 -0.1962481 -0.22520246 -0.069666155 -0.07328715 -0.10473027 -0.043617114
-0.12128643 -0.1270052 -0.050684433 -0.04086539 -0.13714346 -0.16698718 0.04082347 -0.22647202
-0.12113696 -0.05404637 0.055409625 -0.09912513 -0.23189117 -0.12722577 0.08287612 -0.22805947
-0.098603934 -0.20272629 -0.07508696 -0.23022111 -0.25881726 -0.18933912 -0.051623244 -0.32775736
00000000: 3505 1cbe ab05 53bd fe8a 8bbd c6f5 55be
00000010: 0abc 1bbe 4e50 673d 5543 49be 0736 d13d
00000020: b37b 53be 6876 6a3d fe8a 46be 3c9f 31be
00000030: 4da4 ae3d 2713 473d f7ad 02bd 9d17 8bbe
00000040: 4244 0bbe a785 30be 04e3 45be d125 a63d
00000050: 00e5 6abd 42d2 36be 7697 be3c fc8a 76be
00000060: 3d30 02be ed3d 603d aa2a bdbe ed89 763e
00000070: 31e8 58be ff0b 10be cfa4 5fbe cc6c 78be
00000080: 31aa afbe be5a f8bd 43f5 48be 799b 66be
00000090: 21ad 8ebd 9317 96bd d37c d6bd dca7 32bd
000000a0: 0565 f8bd a70d 02be 7b9a 4fbd 7862 27bd
000000b0: 566f 0cbe b0fe 2abe 8336 273d 48e8 67be
000000c0: a816 f8bd ba5f 5dbd 34f5 623d 1e02 cbbd
000000d0: e174 6dbe 7947 02be f5ba a93d 6c88 69be
000000e0: dcf0 c9bd 7b97 4fbe 31c7 99bd 15bf 6bbe
000000f0: b283 84be 1de2 41be e572 53bd d0cf a7be

critic.fc2.weight f4 [64, 64]
-0.011285244 0.019689297 -0.1859528 0.0842154 0.06237711 0.014697222 -0.039337162 0.020697864
0.08820739 -0.09221222 -0.1259165 -0.009269576 -0.1413539 -0.06133931 -0.047021635 0.085121386
-0.030968044 0.026240082 0.1013491 0.110019006 -0.030992305 -0.06931643 -0.008557374 0.076921135
0.062575966 -0.09216053 0.055568263 -0.08977531 -0.10878143 0.109983906 0.053380832 -0.022499733
0.018097963 0.04050234 0.11535464 0.046326626 -0.10872184 0.059862237 0.08671272 -0.09421869
0.09241474 -0.115089595 0.08735303 0.08363397 0.040222447 0.031626932 -0.013070779 0.022794286
-0.053950924 -0.06525797 0.09329056 -0.022202594 0.035171144 -0.031221297 0.038308345 0.0062200665
-0.06867869 0.03762712 -0.016885633 -0.1371281 -0.012356462 0.1031135 -0.072912626 0.017105116
-0.121378586 -0.039937504 -0.11640055 -0.051645424 -0.1101536 -0.034670584 -0.11794722 -0.09955792
0.11163667 0.0046544317 -0.09713951 -0.09465802 -0.0082305595 -0.0013126597 -0.05464114 -0.04685399
0.03903379 -0.09386928 -0.06895044 0.03505715 0.027818292 0.01138909 0.061327126 0.01316947
-0.070211425 0.01586231 -0.035562884 -0.06608923 -0.11635244 0.00134255 -0.07073539 0.13228078
0.038297925 -0.08362857 0.09962807 -0.03819094 -0.11655244 0.083146006 -0.084145956 0.08358827
-0.14077432 0.008770795 -0.085684195 -0.06276246 0.009777247 0.12225858 -0.078445084 0.20777796
-0.06294507 0.060234737 -0.100562684 0.056662142 -0.10199901 -0.015014534 -0.013356876 -0.10023156
-0.13957047 -0.1414196 -0.1450553 -0.12730746 0.0822624 0.11616711 -0.011687282 0.027548691
0.015309523 -0.06541849 -0.40459394 0.021487005 0.09670076 0.10147769 -0.12723607 -0.3700919
-0.29104307 -0.15138283 -0.20326126 -0.034273874 -0.4262487 0.02228866 -0.25592592 0.015465321
-0.13084121 -0.107228264 -0.24765283 -0.03823046 0.0013841635 -0.136203 -0.13951951 0.038522992
-0.031366676 -0.2313682 0.042542107 -0.06578262 -0.22786441 -0.018554647 -0.06706064 -0.0015817239
0.011334468 -0.06596275 -0.12083703 -0.16128798 -0.21876723 -0.07671175 -0.20076935 -0.026900724
-0.241601 -0.12065713 -0.10397302 -0.027619854 -0.01945736 -0.033953585 -0.1032873 -0.005347588
-0.054872975 -0.069580965 -0.45784345 0.005584783 -0.14113036 -0.16541907 -0.08476504 -0.26080504
-0.07678982 -0.3360797 0.048315965 0.056192596 -0.22311074 0.00027040674 -0.20880923 0.015980694
-0.021106431 -0.15851273 -0.11778689 0.06326964 0.053132568 -0.18337345 0.017058168 0.12971859
0.069533445 0.08426777 -0.14119133 -0.06716757 -0.23272188 -0.24287374 -0.1620539 -0.1542342
-0.06464917 -0.2350628 -0.15573955 -0.065710984 0.17309776 -0.31567654 -0.094493836 -0.03166992
-0.0052371845 -0.2605074 -0.19773284 0.040181987 0.03501293 -0.12838979 -0.24353933 0.08052572
-0.038125712 -0.03407111 -0.003040985 -0.054553818 -0.108294725 -0.07698521 -0.07454523 -0.28400084
-0.20455155 -0.25922164 -0.07945675 -0.032321088 0.065374635 -0.15787576 0.06734052 -0.11290647
-0.21584468 -0.14589687 -0.26941743 -0.021350782 -0.14790948 0.12651606 -0.22171542 0.05898013
-0.010818598 -0.12621726 -0.50663507 -0.12973048 0.08485985 -0.113529734 -0.09797416 0.052070417
00000000: bee5 38bc 734b a13c 696a 3ebe 2079 ac3d
00000010: 247f 7f3d 9ecc 703c 0120 21bd 918e a93c
00000020: 13a6 b43d c3d9 bcbd 41f0 00be 6bdf 17bc
00000030: 14bf 10be ee3e 7bbd c299 40bd 1f54 ae3d
00000040: b2b0 fdbc 71f5 d63c 1e90 cf3d a551 e13d
00000050: 93e3 fdbc c6f5 8dbd 3a34 0cbc d488 9d3d
00000060: d427 803d a9be bcbd 8c9b 633d 1edc b7bd
00000070: ccc8 debd 3e3f e13d dca5 5a3d 5c51 b8bc
00000080: 2e42 943c c8e5 253d 0e3f ec3d fdc0 3d3d
00000090: 8ea9 debd 1b32 753d 7096 b13d bbf5 c0bd
000000a0: f043 bd3d 18b4 ebbd 25e6 b23d 4948 ab3d
000000b0: 4bc0 243d 3e8b 013d d226 56bc 15bb ba3c
000000c0: a5fb 5cbd f8a5 85bd 1f0f bf3d 37e2 b5bc
000000d0: 9e0f 103d cec3 ffbc 36e9 1c3d b3d1 cb3b
000000e0: 6aa7 8cbd e51e 1a3d bd53 8abc 4f6b 0cbe
000000f0: c272 4abc 2c2d d33d 3753 95bd 0720 8c3c
00000100: 5695 f8bd 8295 23bd 6963 eebd 278a 53bd
00000110: 3698 e1bd be02 0ebd 508e f1bd 06e5 cbbd
00000120: c4a1 e43d 3484 983b 14f1 c6bd 10dc c1bd
00000130: 78d9 06bc 8d0d acba 63cf 5fbd f8e9 3fbd
00000140: e5e1 1f3d 893e c0bd e335 8dbd 1698 0f3d
00000150: 30e3 e33c 4e99 3a3c 2732 7b3d c3c4 573c
00000160: 02cb 8fbd adf1 813c 63aa 11bd ca59 87bd
00000170: 304a eebd 81f8 af3a b7dd 90bd 9d74 073e
00000180: 49de 1c3d 7545 abbd cd09 cc3d 1a6e 1cbd
00000190: 0cb3 eebd 7448 aa3d b754 acbd 5430 ab3d
000001a0: 2527 10be 61b3 0f3c 327b afbd 9b89 80bd
000001b0: bf30 203c b562 fa3d d1a7 a0bd bfc3 543e
000001c0: 58e9 80bd b3b8 763d cff3 cdbd 9016 683d
000001d0: dbe4 d0bd 85ff 75bc ccd6 5abc 3446 cdbd
000001e0: 90eb 0ebe 4dd0 10be 6089 14be e35c 02be
000001f0: 3079 a83d 06e9 ed3d 037c 3fbc cbad e13c
00000200: cbd4 7a3c 21fa 85bd f026 cfbe 8405 b03c
00000210: 0c0b c63d 89d3 cf3d 2c4a 02be af7c bdbe
00000220: 9903 95be 1a04 1bbe b823 50be c362 0cbd
00000230: 453d dabe b596 b63c b908 83be 4262 7d3c
00000240: 3dfb 05be 7e9a dbbd b498 7dbe 8b97 1cbd
00000250: d26c b53a cd78 0bbe 34de 0ebe 49ca 1d3d
00000260: 587a 00bd c9eb 6cbe a240 2e3d 0ab9 86bd
00000270: 4a55 69be eaff 97bc 1757 89bd d951 cfba
00000280: 34b4 393c 7a17 87bd 6879 f7bd ad28 25be
00000290: 8404 60be 0d1b 9dbd 7b96 4dbe e85e dcbc
000002a0: 4166 77be 161b f7bd cfef d4bd 0843 e2bc
000002b0: 0b65 9fbc ea12 0bbd 4b88 d3bd d23a afbb
000002c0: 7cc2 60bd 7780 8ebd 756a eabe 8e00 b73b
000002d0: 7a84 10be 9e63 29be 4b99 adbd 3d88 85be
000002e0: fb43 9dbd a312 acbe f6e6 453d 352a 663d
000002f0: 2477 64be 61c5 8d39 16d2 55be f2e9 823c
00000300: 65e7 acbc 2951 22be 413a f1bd 8393 813d
00000310: 89a1 593d 40c6 3bbe 92bd 8b3c f3d4 043e
00000320: 8d67 8e3d 9594 ac3d 7694 10be 278f 89bd
00000330: a54e 6ebe e5b3 78be 75f1 25be 92ef 1dbe
00000340: c966 84bd 4db4 70be 307a 1fbe 7b93 86bd
00000350: 8a40 313e 5ba0 a1be fc85 c1bd 51b8 01bd
00000360: b09c abbb 3a61 85be 7a7a 4abe de95 243d
00000370: b869 0f3d 9d78 03be 6062 79be abea a43d
00000380: b529 1cbd 268e 0bbd 434b 47bb d373 5fbd
00000390: a0c9 ddbd 6caa 9dbd 2bab 98bd 8f68 91be
000003a0: f675 51be b3b8 84be 38ba a2bd 1e63 04bd
000003b0: 23e3 853d 2faa 21be d4e9 893d 823b e7bd
000003c0: 6306 5dbe fd65 15be 15f1 89be d6e7 aebc
000003d0: 9575 17be 6d8d 013e 5e09 63be 2695 713d
000003e0: 7d40 31bc 193f 01be d6b2 01bf 11d8 04be
000003f0: 00cb ad3d 4782 e8bd ada6 c8bd ca47 553d

critic.fc2.bias f4 [64]
0.022956066 0.0022943092 0.14361104 0.022338111 0.012625531 -0.10005781 0.119792044 -0.18613769
-0.053056333 -0.10952211 -0.00086280936 -0.09432518 0.07887974 -0.070451714 -0.08412069 -0.022281725
-0.2065744 0.018277206 0.03903474 -0.064108856 0.00586579 0.0226733 0.013321253 -0.13580695
-0.0989986 -0.028092422 -0.2123692 -0.13040064 -0.15776324 0.0773928 -0.056546446 -0.05402973
-0.16552302 -0.19419 -0.091284856 -0.043204267 0.08942577 0.14012837 0.038308363 -0.07581119
0.0745426 -0.036712628 0.008532586 0.20898858 -0.0009712656 -0.1331744 -0.09021712 -0.033204727
-0.18509518 -0.15586835 -0.17475002 -0.033355393 -0.064635165 -0.012424188 -0.032845374 -0.010838987
-0.14789727 -0.04623204 -0.12392043 -0.080838636 0.059182063 -0.0055947397 0.008109994 -0.105470255
00000000: 5c0e bc3c 1f5c 163b c60e 133e 6afe b63c
00000010: 51db 4e3c 1ceb ccbd 8855 f53d e19a 3ebe
00000020: 9951 59bd 214d e0bd 282e 62ba 8f2d c1bd
00000030: b38b a13d fd48 90bd 7847 acbd 2a88 b6bc
00000040: 3d88 53be 14ba 953c e4e2 1f3d 814b 83bd
00000050: d035 c03b 5bbd b93c 6241 5a3c fa10 0bbe
00000060: c7bf cabd 1422 e6bc 5077 59be bf87 05be
00000070: b08c 21be 1e80 9e3d 3f9d 67bd 474e 5dbd
00000080: de7e 29be bed9 46be 8ef3 babd f5f6 30bd
00000090: dc24 b73d d07d 0f3e 3be9 1c3d e642 9bbd
000000a0: caa9 983d fb5f 16bd 42cc 0b3c 1a01 563e
000000b0: 889c 7eba df5e 08be c1c3 b8bd ae01 08bd
000000c0: 9789 3dbe f49b 1fbe abf1 32be aa9f 08bd
000000d0: 715f 84bd d28e 4bbc df88 06bd 0296 31bc
000000e0: 6272 17be cf5d 3dbd ffc9 fdbd ba8e a5bd
000000f0: e468 723d 1454 b7bb c8df 043c ca00 d8bd

critic.fc3.weight f4 [1, 64]
0.024240192 -0.022125296 0.09582527 -0.07797067 -0.0025253282 -0.025651356 0.03336676 -0.0046662753
-0.03373159 -0.0062495014 0.00042810757 -0.03757673 0.030685823 -0.0003250207 0.007506736 -0.0464989
-0.009885906 -0.06036097 -0.0045359214 -0.0039768703 -0.018653924 0.0113115655 0.0029071295 -0.0056200936
0.005922868 -0.01627305 -0.04345348 -0.0006637034 0.0054027755 -0.037889227 -0.0042384993 -0.0059953397
8.2828046e-05 -0.039283816 -0.003074205 -0.0145034855 0.013978462 0.045794357 -0.02356251 -0.026634613
0.01611273 -0.0057211607 -0.049209546 0.049604915 0.0001104964 0.009811445 0.008889692 -0.0033930966
-0.039684225 -0.00941207 -0.01260353 -0.0018894362 -0.013437714 0.0022140176 0.024919571 -0.013994423
-0.02139506 -0.025292665 -0.0019204575 0.00077617815 0.0003208601 -0.008024821 -0.00039620453 0.01221828
00000000: 5e93 c63c 1c40 b5bc 0a40 c43d 16af 9fbd
00000010: fa7f 25bb cb22 d2bc 95ab 083d 8ee7 98bb
00000020: 232a 0abd 9ec8 ccbb a073 e039 0fea 19bd
00000030: d660 fb3c 8a67 aab9 11fb f53b a175 3ebd
00000040: 7ff8 21bc 113d 77bd 11a2 94bb 6850 82bb
00000050: 1dd0 98bc 2554 393c 8a85 3e3b c328 b8bb
00000060: 9e14 c23b 0f4f 85bc 47fc 31bd 62fc 2dba
00000070: c409 b13b bc31 1bbd 1ce3 8abb 8e74 c4bb
00000080: f8b3 ad38 11e8 20bd 9a78 49bb 07a0 6dbc
00000090: eb05 653c dd92 3b3d 2a06 c1bc d530 dabc
000000a0: d8fe 833c 9378 bbbb f38f 49bd 862e 4b3d
000000b0: 4eba e738 2fc0 203c 12a6 113c b75e 5ebb
000000c0: ed8b 22bd 1535 1abc 097f 4ebc f5a6 f7ba
000000d0: dc29 5cbc 0d19 113b 2124 cc3c dd48 65bc
000000e0: b144 afbc 9032 cfbc dcb7 fbba 6f78 4b3a
000000f0: 1d39 a839 8a7a 03bc acb9 cfb9 2e2f 483c
